weights/val_acc_final.pt (torch_old, 169148 bytes, 13 tensors)

embedding.weight f4 [53, 53]
00000000: f1b8 07bf 6b9f 36bf 23dd b33e 8b89 ba3f
00000010: 3448 9c3f 1c60 c53f 94b6 d0be b35c 093f
00000020: 0292 cfbf c48f 8c3e 328d afbf 7f76 e63e
00000030: 0524 a03e 7239 2ebf 7fc0 0ac0 54ac 3ebf
00000040: 9807 973f 894a edbe dfd7 2fbf fa27 f43f
00000050: adeb c7bf 6cc8 a4bf f03e 05c0 4c16 95bf
00000060: e2d5 183f 20d6 a13f bdaf c93f 4eb2 1ebf
00000070: 0a79 0b3f 809f 16bd 32f5 813f 547a 49bc
00000080: d002 1dbe a389 063f 87fb bcbe 7f06 85bf
00000090: 8468 00bf 7a2e 863f 8bd8 083e 3353 993e
000000a0: 16ea 4c3e a10a 82be 0ed0 82bf 342d 9abe
000000b0: 0d90 afbd 5f6c a2bd 6855 9f3f 27bd b73d
000000c0: e817 a8bf 8152 48bf 43ea 373f fb75 26bf
000000d0: 921f f1bf 3b39 9c3d 53a2 e4bf 81a2 d9be
000000e0: a71a 76bf 340b adbf 2348 87bf 2bef 91be
000000f0: 70a2 c43e 3270 193f f017 b03e bb73 14c0
00000100: 7769 753f a86c ddbf 1615 e83e 64f8 4cbe
00000110: 83ac d7bf 20f1 413e 5729 833d a44a c9bf
00000120: 7a8a 27be 81fa 95bd 5d50 193f 7051 cc3e
00000130: 62c5 723f 021f f2bd fe54 8e3f c5d3 213f
00000140: 397b 40bf dfec 8dbf 4497 5fbf 2638 63bf
00000150: aedc 343e 67ad 80bf 3327 783f 7560 c9bf
00000160: 8db1 21be ff15 b83f bcfd 1a40 90c9 b93f
00000170: 6848 ecbe 51b7 f7be 760b 54bf cff5 813e
00000180: c8d3 2fbf 3e63 443f 4fbc 9bbf 39ee 8e3f
00000190: 861c 15c0 78e9 95bf ad9d 89bf 3973 b9be
000001a0: 5de6 9f3e b255 543f bae9 c63c bca1 99bf
000001b0: 9492 1fbf 4ba0 c23e 9360 673f face 11c0
000001c0: 669f 343e 91e0 aebe 35ed 2d3f dc62 703e
000001d0: 08af 623f a7bf 5cbf bd74 af3f 039d 8ebc
000001e0: dc96 ef3f 1d82 5a3f c7fa e6bf 115a eebe
000001f0: f68d 20bf 8063 a3bf 5514 73be 96e7 4ebd
00000200: c919 24bf 5609 c6be e8e4 3fbe 9362 81bf
00000210: c24d 03c0 f1ed adbf 207f 0d3f 9577 91bf
00000220: 54e5 12bf 2485 3d3f d1d1 f03d 988e 82be
00000230: 4f36 17c0 dc91 14c0 fe96 b9bf 153c 9c3e
00000240: 0863 d9be 720e 2bc0 aee1 44bf 2918 b63f
00000250: aaf8 593f 00cc 12bf 23b4 bf3e 7138 8e3f
00000260: 10bf 1b3d 424b d1be 4391 e0be d7c8 a73f
00000270: 04e0 b0be 605e 4b3e 9fe7 25c0 57b0 c4bf
00000280: 4d71 debf dc6e 01bf 6202 97be bab4 b1be
00000290: fdc3 073f 4c96 2a3f 1a46 88bf e6d6 bdba
000002a0: 6ed9 d33e 93f0 d13f 96af a6bf 362e 92bf
000002b0: b1d8 19bf 8af4 b3be 5e53 24be ec2f 2abf
000002c0: a5a0 5fbf 0391 adbf f43f 5b3e 26ba 92be
000002d0: 0a09 bfbf cd5e 843e ee02 c53d a03e 313f
000002e0: bbfb 2ebf c8d7 b83f 2feb 44bf 6882 d63e
000002f0: 1338 eebd b7ee 293f 4961 17bf 127a 923f
00000300: dda8 bcbe d65f 3ac0 d2de 0fbe e807 67bf
00000310: d130 85be ad38 e6be 251f a4be 3095 0d3f
00000320: d257 d6bf 205e 4a3f 4347 0440 3bf7 dd3f
00000330: ce2a 84bf 57f7 0cbf 7f03 1abf 93d4 c4be
00000340: ecc6 ac3d 66d2 03be 6a51 2fbf 3dc6 93bf
00000350: c148 1cbf 50be 503f dd6d 21bf 4628 46bf
00000360: 6f31 e23e 0e8c 39bf 0d9d 9f3f b816 a2bf
00000370: 3b5a 953f d551 37c0 d5d1 8d3f 74b6 6cbe
00000380: 104b a8bf 0eff ce3e 3e21 7bbf 099c 98bf
00000390: 54e0 743f 1187 813e 15cf 7cbe 9deb 3e3f
000003a0: 4590 c83f 929d efbe 1622 053f 3b87 c33c
000003b0: 3d79 b1be 1b5b 0f3f f7d5 23bf 6340 7dbf
000003c0: e59a 1dbf b752 98bf 3220 763f 58d5 f53e
000003d0: 1722 213d 6743 393f 9a5d 9d3f 3c0e 673e
000003e0: 097b 2bbf 57fd 52bf 14cf 0f3f 3a2f 443f
000003f0: fbe8 003f 6235 e2be 05dd 9abf ff14 8abf
-0.53016573 -0.71337 0.3512965 1.4573225 1.2209535 1.5419955 -0.40764296 0.5365707
-1.6216433 0.27453434 -1.3714964 0.4501228 0.3127748 -0.68056405 -2.167999 -0.744817
1.1799192 -0.46345928 -0.6868877 1.90747 -1.5618798 -1.2873664 -2.0819664 -1.164743
0.5970136 1.2643471 1.5756756 -0.6199082 0.54481566 -0.036773205 1.0152953 -0.012297232
-0.15333104 0.52553767 -0.3691065 -1.0392607 -0.5015948 1.0482934 0.13363855 0.29946288
0.20011172 -0.25398734 -1.0219743 -0.30112612 -0.085723974 -0.079308264 1.2447939 0.08971625
-1.3132296 -0.7825089 0.7184183 -0.65023774 -1.883776 0.07628103 -1.7862037 -0.42506793
-0.9613442 -1.3519044 -1.0568889 -0.28502783 0.3840518 0.5993682 0.34393263 -2.3195636
0.9586405 -1.7298784 0.45328587 -0.20016629 -1.6849521 0.18939638 0.06404369 -1.5725904
-0.16361418 -0.073231705 0.5988825 0.39905882 0.9483243 -0.118223205 1.1119688 0.6321376
-0.7518802 -1.1087912 -0.8734019 -0.8875755 0.17662308 -1.0052918 0.96934813 -1.5732561
-0.15790386 1.4381713 2.4217367 1.4514637 -0.46148992 -0.48382047 -0.8282999 0.2538285
-0.6868253 0.7671393 -1.2166842 1.116645 -2.329866 -1.1711874 -1.0751244 -0.3622072
0.3123044 0.8294326 0.024281371 -1.2002482 -0.62333035 0.3801292 0.90381736 -2.2782578
0.1763893 -0.34155706 0.67940074 0.23475212 0.88548326 -0.8622994 1.3707501 -0.017408853
1.8717914 0.8535479 -1.8045281 -0.4655309 -0.62716615 -1.276474 -0.23738225 -0.050513826
-0.64101845 -0.38678998 -0.18739665 -1.0108207 -2.051621 -1.3588239 0.552721 -1.1364619
-0.57381177 0.7403128 0.11758769 -0.25499415 -2.3626897 -2.3214025 -1.4499204 0.3051459
-0.42458367 -2.6727567 -0.7690686 1.4226123 0.85145056 -0.5734253 0.3744212 1.1110975
0.03802401 -0.4087773 -0.43860826 1.3108166 -0.3454591 0.1986022 -2.592262 -1.5366315
-1.7378327 -0.50559783 -0.29494005 -0.34708196 0.5303343 0.66635585 -1.0646393 -0.00144836
0.41376823 1.6401542 -1.3022335 -1.1420352 -0.6009627 -0.35147506 -0.16047427 -0.6647937
-0.873545 -1.3559879 0.21411115 -0.28657645 -1.4924634 0.25853577 0.096196994 0.69236183
-0.6835286 1.4440851 -0.7692136 0.41896367 -0.11631789 0.66379875 -0.5913282 1.1443503
-0.36847582 -2.9120994 -0.14049843 -0.9024644 -0.26013806 -0.44965115 -0.3205501 0.5530577
-1.6745551 0.79049873 2.0668495 1.7341074 -1.0325563 -0.5506491 -0.60161585 -0.3844343
0.08436379 -0.1287323 -0.68483603 -1.1544873 -0.61048514 0.81540394 -0.63058263 -0.774052
0.4417834 -0.7247933 1.2469803 -1.2663183 1.1668161 -2.8643696 1.1079661 -0.23116475
-1.3147907 0.40428966 -0.980976 -1.1922618 0.956548 0.2529836 -0.2468837 0.7457827
1.5669028 -0.46799904 0.52005136 0.023868194 -0.3466281 0.5599839 -0.6399836 -0.9892637
-0.61564475 -1.1900243 0.96142876 0.4801433 0.03933915 0.7236847 1.229419 0.22564024
-0.6698461 -0.82417816 0.5617535 0.7663456 0.503555 -0.44181353 -1.20987 -1.0787657

li.weight f4 [128, 72]
00000000: 7f24 0abd 02d7 20be 6b85 5c3e bfa9 a6bd
00000010: a7c2 29bd e14b 3d3d 3a51 2c3e 2a4a 393d
00000020: b540 9dbd 1e79 183e d38f 763d 70cc 29be
00000030: ac39 81bd 6612 723d b45e c9bd 008c 333d
00000040: c686 96bd 2f30 41be 28b5 13be ce7b ae3d
00000050: 7194 423c ca57 523d f56e b33d 8dd5 70bc
00000060: d5e7 6fbe cb04 4cbd f6f2 48bd ef9d c1bc
00000070: 033e 1dbc 7777 15be 56f8 eabd 46d2 f5bd
00000080: b5fe 10bd 7e1d 743e f16a f2bd 72d0 783c
00000090: 3389 5e3a 3783 0a3d 3256 733c e72f 8fbd
000000a0: 603f 2f3d 3736 833d b754 913b f099 c23c
000000b0: 4cd9 4cbe 2069 26be fa35 dc3b 2200 38be
000000c0: 13c0 913d d9a3 b5bc df86 37be 4385 e63d
000000d0: 7f05 b73d ac91 bf3d 8a1d b13d 0bde 1d3c
000000e0: 4f65 d83d 6f08 9fbe 0241 fcbc eda6 d2bd
000000f0: 4f76 433d 4c7c 60bd e4cd 053d edff 30bd
00000100: a61d 98be 734f 1cbd 3ed8 383e f78e 9abd
00000110: 26e1 883d e71f 443d 0e39 c73c 4e69 2fbd
00000120: 1201 ecbd 1b76 833d 5894 0ebd 4cca c43d
00000130: 2046 d83d e17f b43d 59cc 23bc 2407 28be
00000140: 01a5 17bc b31f 083e cd18 ec3d 21a0 613d
00000150: 72f1 cf3d 04fe b43e 06f8 10bd da73 933d
00000160: a1b5 06bd 818a 3c3e b8ef 18be f9e7 12bc
00000170: a671 073e 01d4 a4bc 7754 96bb f5a6 733c
00000180: ce91 ccbc 65df 19bc 196c 95bc f116 f0bd
00000190: 0c96 70bb 912f dcbd 392e f83c a04a 103e
000001a0: 4ac0 c83d c0c0 9abc 81b8 11be a4ab a5bd
000001b0: c559 98bd 85df 3ebd 802b 20bd 92a1 13be
000001c0: 2364 00be 03e6 c93d 8880 f83d cffc e3bc
000001d0: 3efb 083e 5afe 463c 9a94 db3b 34c3 a2bd
000001e0: 9527 86bc 65dc 8bbb b3db 7a3e 0d0d 92bd
000001f0: 24c8 9abd 12fc 86be 658e 4a3d 9466 a53d
00000200: aa56 0cbe 736d 46be a4e3 183e ff65 0bbe
00000210: 3079 febd ba52 233e 807e e5bc 3b67 aebe
00000220: 026d c13e f46a 983c 8a00 753d 463e 323e
00000230: aa34 97be 2136 fc3d c835 a6bc e2f2 75bd
00000240: f43c 2abd 7b46 9bbc a587 a3bc ef14 d63d
00000250: 24fd 433d b9bd de3d bd53 323e caca dfbd
00000260: 1577 90bd 267b 4a3c 9af9 ecbd 2e5d 3f3e
00000270: 8907 d83d 4bb4 eb3d 9799 ce3d 8b83 b5bd
00000280: 8621 a3bc f39a 9e3c f349 99bd 67ef 4c3d
00000290: 472c bebd b3d6 e0bc 297b 09bd 141f e339
000002a0: a973 f5bb a156 35bd a52d e33d a654 0cbe
000002b0: b13a fc3d 02cb d5bd 7d17 0abd 86ab 5a3e
000002c0: 9498 d9bd 760a 28bd 132c c23d a881 6e3d
000002d0: 2284 c5bd bd89 91bc 499c 8bbd 988c 1c3d
000002e0: 6f9e d73d 1ff6 0d3e 3238 f6bb f105 0dbe
000002f0: eb56 bbbd 84cb b7bd e08d b1bd 8db9 ac3c
00000300: 8039 5c3c a91a c3bd 646a c7bd 76f2 e33c
00000310: 442a 76bc 8c57 75bd 75be 7ebe 599e 003e
00000320: cbde 87bd bf83 1fbc b3e0 153c 1e96 083e
00000330: 4e30 ecbc 9edd e73c 7972 7d3e d63c 9dbe
00000340: 9612 d53c c5fd d03d 5cb8 6938 1e4a 643e
00000350: fe68 e3be 617e 863d d97b d1bd 3370 8cbc
00000360: ac42 97bd 1e1c b03d a550 6cbe da18 a9bd
00000370: c031 43bd 9071 b63d d3a7 a1bc 9479 c4bd
00000380: fb42 a8bd 36cc 3a3d 21e1 c43d e854 483e
00000390: 1345 5abc c1cb 2f3e 2411 73bd 5238 f8bc
000003a0: 85ef a9bb 00dd 0a3e 96db 3b3c db0b 553d
000003b0: 82ea c0bb ad62 6f3d f75a c1bd b244 343d
000003c0: fd58 423e 597e a4bd e86d ce3d 0bee ad3d
000003d0: 136c 70bd bf6b b5bc 99a0 5abc 3eea ce3d
000003e0: 77d8 343d 867f 17be a352 55bb f98f 583d
000003f0: 19d4 06be 0e99 52bd 4d42 c13c cddc c7bd
-0.03372621 -0.15707019 0.2153527 -0.08137845 -0.0414454 0.046214942 0.1682786 0.045236744
-0.076783575 0.14889953 0.060195755 -0.16581893 -0.06309828 0.059099577 -0.09832516 0.043834686
-0.07349925 -0.18866037 -0.14424574 0.085197076 0.0118762115 0.051353253 0.08761398 -0.014699352
-0.2342828 -0.04980926 -0.04905983 -0.023634879 -0.009597304 -0.14596353 -0.114731476 -0.12002997
-0.035399158 0.23839375 -0.11836804 0.015186416 0.0008489072 0.033816542 0.0148520935 -0.069915585
0.04278505 0.06406825 0.0044351476 0.023755044 -0.20004767 -0.1625104 0.0067203017 -0.179688
0.071167134 -0.022172855 -0.17922543 0.112558864 0.08936595 0.093539566 0.08648212 0.009635459
0.10566198 -0.31061122 -0.030792717 -0.10285745 0.04772025 -0.05480604 0.032667056 -0.04321282
-0.2971012 -0.038161706 0.1805124 -0.075468 0.06683569 0.047881987 0.024319198 -0.042825036
-0.11523642 0.06419011 -0.03480944 0.096088976 0.1056025 0.088134535 -0.009997451 -0.16408974
-0.009255649 0.13293342 0.11528168 0.05508435 0.10153474 0.3535005 -0.035392784 0.07199831
-0.03288806 0.1841221 -0.14935195 -0.008966439 0.13226947 -0.020120623 -0.0045877057 0.014871349
-0.024971869 -0.00939164 -0.018240022 -0.11723126 -0.0036710529 -0.1075126 0.030295478 0.14090967
0.09802301 -0.018890738 -0.14230539 -0.080893785 -0.07438997 -0.046599884 -0.039103985 -0.14417103
-0.12538199 0.098583244 0.121338904 -0.02783051 0.13377091 0.012145603 0.0067010643 -0.07947388
-0.016376296 -0.0042682164 0.24497871 -0.071313955 -0.07557705 -0.2636419 0.049452204 0.08076206
-0.13704935 -0.19377689 0.14930588 -0.13613127 -0.124254584 0.15949526 -0.028014421 -0.34063134
0.3777848 0.018605687 0.059814967 0.17406568 -0.29532367 0.12315012 -0.020289317 -0.060046084
-0.041562036 -0.018954506 -0.019962141 0.104532115 0.047848836 0.108760305 0.17414756 -0.10927351
-0.07053963 0.012358462 -0.11571045 0.18687889 0.10548312 0.115089975 0.10087889 -0.088629805
-0.019913446 0.019360995 -0.07484808 0.050033 -0.09285789 -0.027446127 -0.03356472 0.0004331997
-0.0074905944 -0.04427207 0.110926904 -0.13704166 0.12315882 -0.10439111 -0.033713806 0.21354493
-0.10624805 -0.0410256 0.09481063 0.05822912 -0.09644343 -0.017765874 -0.068169184 0.03822002
0.10528266 0.13863419 -0.007514023 -0.13771798 -0.09147438 -0.089743644 -0.08669639 0.021084571
0.013441443 -0.095265694 -0.09737089 0.027825575 -0.015024725 -0.059897944 -0.24877341 0.12560405
-0.06634291 -0.009736001 0.009147811 0.13338515 -0.028831627 0.028303917 0.24750699 -0.30710477
0.026009839 0.10204653 5.5723227e-05 0.22293898 -0.4441604 0.065670736 -0.102287 -0.017143345
-0.073857635 0.08599113 -0.23077638 -0.08256693 -0.047654867 0.08908379 -0.019733345 -0.09593502
-0.082159005 0.045604907 0.096132524 0.19563639 -0.013322133 0.1716757 -0.05934252 -0.030300293
-0.0051860237 0.13560867 0.011465928 0.05201326 -0.0058873305 0.058443714 -0.09441178 0.044010825
0.18979259 -0.080319114 0.10079557 0.08492669 -0.058696818 -0.022146104 -0.0133439535 0.10103272
0.04415175 -0.1479474 -0.0032550476 0.052871678 -0.13166846 -0.051415496 0.023591185 -0.09758911

li.bias f4 [128]
00000000: 7121 cb3d c2da 3e3d 00c4 df3d d3f0 dabd
00000010: cecb aabc 97cf 98bd 01c1 133c 348f 12bd
00000020: d957 27bd c9d7 b03a fc53 cabd a05f 04bb
00000030: a1ee 9abd 4eca 03bd ec42 623b 0b8c c63c
00000040: ba80 933d ba26 c03d f667 e3bd 80d2 a73d
00000050: e960 6e3d 16be c8bb 893a cb3c 5cc0 99bb
00000060: 109b 6abd 45d5 133d f88d 053d 2508 d6bd
00000070: 834b efbc 2586 da3d e24f c83b 18fd 7fbd
00000080: f847 8d3c 8edf 99bb 6f24 adbd f554 4d39
00000090: 38f2 94bd 5d73 66ba f5eb cc3c 7417 71bd
000000a0: 5c80 133d 9fc9 dd3c 861f e43d 8715 b9bd
000000b0: 0e5d a23d 5d44 5d3d 4644 163b 31fb b13d
000000c0: a234 adbd 43b1 023e 5827 8dbd 66ec 62bc
000000d0: f562 8a3d 11a1 983c 3f4f 833d 7728 8d3d
000000e0: 01c1 b3bd f97e 88bd 5c5b 13bd d636 403d
000000f0: 1e39 c6bc 5d6c 3a3d 43d2 adbd 9e1f 043d
00000100: 6e93 e33d e4ad 303d a81b 97bd f17b 6e3d
00000110: a422 22bd 8a34 abbd ec64 b73d 49f3 fabd
00000120: 592e 4b3d 10ce 9cbd e709 cbbd beeb db3d
00000130: 6129 903c f2b5 543d 5100 993c c495 9dbd
00000140: a4a7 ad3d 1022 ee3d ac7f b23d 79f6 b83d
00000150: d143 913c 51be d3bd a998 903d 098a 143c
00000160: 55d7 c0bb f8ec cebc 5a36 b1bd 9a9c 61bd
00000170: a045 29bd c8da 843c e8dc afbd 8dfe 373d
00000180: 11ba 59bc a733 33bd 76d1 853c f60f 8abc
00000190: 16b8 debd 77c8 973d d961 75bc c8db 77bc
000001a0: 073e dfbd 221d 54bc 80c0 eabd 8510 8aba
000001b0: 7f5d a03d e678 743d 6ba0 98b9 57b6 c1bd
000001c0: d890 0abc dc83 ffbc d7f7 f5bc 6bbd edbc
000001d0: b412 1f3c 79d1 493c d6bb 043e 67c7 b33d
000001e0: 1271 bd3b 4b92 bf3b 731f d6bd 9f0e 97bd
000001f0: 3059 293c 5316 b23d 83e2 40bc 98e3 75bd
0.09918488 0.046595342 0.10926056 -0.10690465 -0.020849135 -0.074614696 0.009018184 -0.0357811
-0.040855262 0.0013492043 -0.098793 -0.0020198599 -0.07565046 -0.032175355 0.0034524752 0.0242367
0.07202287 0.093823865 -0.11103813 0.081944466 0.05819789 -0.0061261756 0.024808185 -0.0046921205
-0.057276785 0.03609206 0.032606095 -0.10450772 -0.029210811 0.10670117 0.0061130384 -0.06249723
0.017246231 -0.0046958392 -0.08454215 0.00019581972 -0.07272762 -0.0008790994 0.025014857 -0.058860257
0.036011085 0.02707368 0.11138825 -0.09037309 0.07927905 0.054020274 0.0022928878 0.08690489
-0.084573045 0.12762932 -0.0689227 -0.013850307 0.06757156 0.01863149 0.06411599 0.06892484
-0.08777047 -0.06664843 -0.0359758 0.046927296 -0.024197157 0.0455135 -0.0848737 0.032256715
0.11112104 0.043134585 -0.07378322 0.05822367 -0.039583817 -0.083596304 0.08954796 -0.12253434
0.049604747 -0.07656491 -0.09913998 0.10738324 0.017597856 0.05193133 0.018676909 -0.07694581
0.084792405 0.11627591 0.08715758 0.09031386 0.017732533 -0.10339034 0.070603676 0.009066113
-0.0058850446 -0.02525948 -0.08652945 -0.055080988 -0.041326165 0.016217604 -0.085870564 0.044920493
-0.013288991 -0.04375043 0.01633523 -0.016853314 -0.10874955 0.074112825 -0.014976942 -0.0151280835
-0.10900503 -0.012946399 -0.11462498 -0.0010533488 0.07830333 0.05968561 -0.0002911122 -0.09458607
-0.008457385 -0.031190805 -0.030025406 -0.029020986 0.009709049 0.012318009 0.12962279 0.08778267
0.0057813013 0.005846297 -0.10455217 -0.073758356 0.010336205 0.08695664 -0.011772755 -0.060031503

linear.0.weight f4 [128, 128]
00000000: fcb0 613d f21f adbd 1bcf bc3c c0f0 413d
00000010: 0ebc 1f3d c94e 7bbd a84d c9bd d8d8 1ebd
00000020: 6bce 053d 5f29 46bd 17ee 853d c8cd 3fbd
00000030: d891 26bd 1471 38bd a9ea abbd c870 e93d
00000040: 6466 89bc 4b2e b33d 40d6 453b 92f2 b53d
00000050: b006 f33c 062b ba3d c671 81bd fe0b d3bd
00000060: e2c7 ab3d 42a4 94bd fb8b b4bb 32b5 4e3d
00000070: db49 80bc 0292 baba 13d7 5d3c fa75 a13d
00000080: a472 813b 8885 6c3d 1064 25bc 7a40 a53c
00000090: 1cb9 8cbc df5f b43d c3f7 55bd 72f3 de3a
000000a0: df2c 583e d734 41bd 4a36 10bd 30b6 013d
000000b0: 242f dfbd fb2c d5bd e1ed 443d 7f23 3f3d
000000c0: 375d ae3b b429 8dbb 2027 df3c f75a 89bc
000000d0: ef04 e2bd 5ace df3c fafe 8e3c 6bb1 843d
000000e0: c9ff b3bd 3abd c4bd 21d3 afbd 02a9 513c
000000f0: 45f8 ab3d 6628 f93d 23fc 823c e7bb ad3d
00000100: 9d2c d13c 9520 ce3c 95b9 b93d eb0e d1bd
00000110: 5c58 cebd 65ab 983d 79ab 09bd 3e97 3fbc
00000120: f81e d1bd e25a c9bd 1968 28bd c7d0 023d
00000130: 0239 3dbd 546f 533d 14ca 83bd 1f0a 2b3b
00000140: c1d1 a0bd f9aa 913d 5105 b6bd 9a0a 573c
00000150: 8eb6 713d c363 71bd 1297 073e 3632 9abd
00000160: 466c 87bd 587d 59bd 67ef 2dbd 18a0 bfbd
00000170: 055a c1bd 62be 843d 3800 ebbd f468 56be
00000180: 86f8 9b3d 53a9 b9ba d544 e2bd cbed 4b3d
00000190: 12ff 71bd b706 333d fa57 f0bd afb6 ae3d
000001a0: bef6 653d bbd0 4d3d b1d5 ad3d 8436 4abd
000001b0: 1ba1 873d 208b 86bd 6775 3c3d 3744 93bd
000001c0: 3719 053d 6c20 4ebc d9dd 883d 0b45 aa3d
000001d0: 5e62 2e3d 570a 5dbc 103f b1bd ef26 b23d
000001e0: d62c 4bbd 5e54 9b3c d1f7 173d a93d e83d
000001f0: 1b01 9fbd 0bb7 e53d 6fcc 023d 6aa6 353d
00000200: f45a 12bd 2971 a23d a6fb b6bd 6827 a0bc
00000210: 468b 31be 0944 8f3d fcee 76bd 83b7 33bd
00000220: b8c6 eebd c053 473d a52c f23d 7f13 73bd
00000230: 9077 b23c 12a4 5e3d e30b f1bd 9535 cf3c
00000240: 40a8 d3bc 6d29 f9ba 3bc6 48be 5af7 e6bd
00000250: 41fc f63d a8f8 013e 397d cdbc c31e c3bd
00000260: 6796 363d a329 74bd d49f 35be 70e8 92bd
00000270: 11b1 2a3d fa98 59bd eba1 76bc 2f81 123e
00000280: db93 5abe 0198 b4bd 6004 f23c b62c 793c
00000290: 85fd 3a3e 9563 ad3d cdf2 223d bacf be3d
000002a0: 3359 e4bd 5be2 2abe 552d ee3d ee05 afbd
000002b0: 43d6 dd3d 49de e73d 492e 4ebd 8087 98bd
000002c0: 92f1 2e3d 97b4 06be a421 10be a85d da3d
000002d0: f46c 653d 3e20 e13d 284a 59bd 2bc6 16bc
000002e0: d5b7 9f3d b674 833d a840 03be 88c6 773c
000002f0: ae7b a43d 46e3 7f3d 0c8a a1bd 1724 2c3d
00000300: 5e85 1cbe 9ace 06bd 6cb8 653d 83a3 bc3d
00000310: 8989 09bd 9b76 093c c224 c63d d87a f33d
00000320: 4be8 623d c18f 19bd 1ed1 6f3d 4621 7dbd
00000330: f770 9bbd c048 913d 72b8 27bd 256d b83d
00000340: 6e44 e83c 294d 7cbd d535 16be de3e 85bd
00000350: 7489 95bd 7c68 4cbd 3fec 9dbc d437 edbc
00000360: e135 df3d 79ae cdbc 933e bd3d a1de e93c
00000370: aa4c 903d 13ef febc 584f 7bbd 3c7d 23bd
00000380: 14cc fcbc b325 b0bd 55a9 22be 8d00 bd3d
00000390: b0ed 83bd 9f59 b1bd a608 d53d e6fe 0e3d
000003a0: ce35 183c d8d1 273d e9d8 00bd 36aa 1cbc
000003b0: d5a8 213c 71fd 623d 0523 d73c 45ec ce3c
000003c0: c2d8 403d d0ab a73d f693 00bd 47bc 0bbc
000003d0: fb77 6dbd e932 90bd f2db a3bb 3c90 003d
000003e0: 2a5c e9bd 0b05 5abb 5dfb 30be 3fb2 d1bd
000003f0: 11f7 f3bc 6edb 1ebe ddc7 213d 02b8 82bd
0.055100426 -0.08453359 0.023047974 0.047348738 0.038997702 -0.061354432 -0.09829265 -0.038781017
0.03266756 -0.0483793 0.06539553 -0.046827108 -0.04066643 -0.045029715 -0.08394367 0.113984644
-0.016772456 0.08749064 0.0030187517 0.08884157 0.029666275 0.09090237 -0.06320529 -0.10305022
0.08387734 -0.07257892 -0.005509851 0.05046577 -0.015660217 -0.0014234188 0.013540047 0.0788383
0.003950434 0.057744533 -0.010094658 0.020172346 -0.01717811 0.088073485 -0.052238237 0.0017009808
0.21110867 -0.047169533 -0.035208024 0.03166789 -0.10897663 -0.1040897 0.04807842 0.04666471
0.0053211707 -0.00430795 0.027240336 -0.016767008 -0.11036097 0.027320076 0.017455567 0.06479152
-0.087890215 -0.096064046 -0.085851915 0.012796642 0.08396963 0.121659085 0.015989369 0.08483105
0.025533969 0.02516202 0.090686 -0.102079235 -0.10075447 0.07454566 -0.033610795 -0.011693774
-0.10210985 -0.09831788 -0.0411149 0.031937387 -0.046196945 0.051619843 -0.06435028 0.0026098562
-0.078525074 0.071126886 -0.08887733 0.013125086 0.05901199 -0.05893303 0.13241223 -0.07529108
-0.066124484 -0.053098053 -0.04246464 -0.09356707 -0.09440998 0.06481625 -0.11474651 -0.20938474
0.076157615 -0.0014164842 -0.11048285 0.049787324 -0.059081145 0.043707576 -0.1173553 0.08530938
0.056143515 0.05024789 0.08488024 -0.049368396 0.06622525 -0.06569505 0.0460104 -0.07190745
0.03249475 -0.012580972 0.06682939 0.0831395 0.04257428 -0.013491235 -0.08654606 0.08698832
-0.049603306 0.018961128 0.03710157 0.11339886 -0.07763883 0.11216553 0.031933244 0.044348158
-0.03573127 0.0793174 -0.08934717 -0.01955004 -0.17338285 0.069953986 -0.060286507 -0.043876182
-0.11658996 0.048663855 0.118249215 -0.059344765 0.021785527 0.05435569 -0.11769845 0.025294105
-0.025837064 -0.0019009538 -0.19606869 -0.11277647 0.12059832 0.12692511 -0.025084125 -0.09527352
0.04457703 -0.05961002 -0.17736751 -0.0717324 0.04167277 -0.053124405 -0.015053253 0.14307092
-0.21345465 -0.08818055 0.029543102 0.015208414 0.18260773 0.084662594 0.039782334 0.093169644
-0.11149826 -0.1668791 0.1162974 -0.08546053 0.10831883 0.113216944 -0.05033711 -0.074477196
0.04271085 -0.13154827 -0.14075333 0.10662395 0.05601211 0.10992478 -0.053049237 -0.00920252
0.07798735 0.06418745 -0.12817633 0.015123017 0.080314025 0.062472604 -0.078876585 0.042026605
-0.1528525 -0.032911874 0.05608408 0.09210875 -0.03357843 0.008390094 0.0967498 0.11888665
0.055397313 -0.03749061 0.05854904 -0.06179931 -0.07589906 0.07093954 -0.040947385 0.09005193
0.028352942 -0.061597023 -0.14668973 -0.065061316 -0.07301608 -0.04990433 -0.01927769 -0.028957285
0.108989485 -0.02510761 0.09240451 0.02854854 0.070458725 -0.031119859 -0.061354965 -0.039914355
-0.03085903 -0.086009406 -0.15884908 0.09228621 -0.0644182 -0.08659672 0.1040204 0.03491106
0.009290172 0.040971607 -0.03145686 -0.009562066 0.009866913 0.05541748 0.026261816 0.025259146
0.047081716 0.081870675 -0.031391107 -0.008528776 -0.05797575 -0.0704096 -0.0050005848 0.031387553
-0.11394532 -0.0033267166 -0.17283387 -0.10239076 -0.029780896 -0.15513393 0.039497245 -0.06382753

linear.0.bias f4 [128]
00000000: 4c0c 613d b2fe a73d 2094 c5bd 89a7 3a3d
00000010: d86b b4bc c343 de3d dc10 67bd 0388 d83b
00000020: 01ff 24bb 385a 0abd a817 a03d 39bc ce3d
00000030: 4631 1abc 4d11 52bd a893 88bc 36d1 8d3c
00000040: bdb2 953d ea1c 95bc e84c 9ebc 66f0 d2bb
00000050: 6d55 e9bc 2d49 15bd 630e 603c a870 e83b
00000060: 904e afbc 9eec cc3d 9797 2f3d d2c6 99bd
00000070: 8c31 5b3c c3ac e0bd e5c7 d23c cf7b 99bc
00000080: 9b28 03bd f465 fe3c 08bb b4bc 8053 c5bd
00000090: c27c 923d 7262 72bd 58e8 c33c 3bb2 31bd
000000a0: 7773 86bd 2858 c93b 001f 0dbc a94d f1bb
000000b0: 10f7 bbbd 978f 35bd 7a63 a03d 5a62 d6bc
000000c0: b77d b2bd 48db 6b3c a858 50bc 83d7 c53d
000000d0: 13e6 56bd bb19 f5bb 77d1 133b 2174 773d
000000e0: 9f14 1abc 1432 893c 278b 9cbd 3f60 97bd
000000f0: 89fd adbd c013 943c 954d 673c 5c0c 42bc
00000100: bade 773d 46fc 9f3d 08d3 39bc 5bd7 7c3d
00000110: c3ab 083c e76d a53a d1ec 833d 9f34 72bd
00000120: 3c22 53bd b7b6 9dbd bc2d 9e3d 2d70 22bd
00000130: e16c bcbb 6b83 b1bd 8048 05bc 2f68 8c3c
00000140: 268f 96bd ceb4 b4bd 8e98 b43d 7eda 5ebd
00000150: def9 28bd 8fcc ce3d 1945 673d 6b36 0dbd
00000160: 65e6 b1bd d560 e6bc 39a4 3ebb f2be bf3d
00000170: 7009 acbd 4063 c33c ebbb 01bd bb23 a2bd
00000180: 934d 5b3d 0db2 5cbd f410 93bd 5f6d c63d
00000190: 80c6 d7bc b8fd cb3c 1eab 7bbd 35d5 333d
000001a0: 2772 57bd 4b2d cd3d ff4d e23d 699f 95bd
000001b0: ecae a63d cd59 2d3d f398 a53d edf2 973d
000001c0: aa9b f6bc b609 aa3d 5984 a43d 56b3 20bd
000001d0: ce4b 50bd 218f 83bd bc34 f13d ba97 58bd
000001e0: 3f1f 13bd ab32 1ebd 4e4c 57bd 896f 8fbd
000001f0: cdaf 50bb 554d df3c 8dff 553d b9ef 4b3d
0.054943368 0.08202876 -0.09647393 0.04556993 -0.02202408 0.10852768 -0.056412563 0.0066080107
-0.0025176408 -0.033777446 0.07817012 0.100944944 -0.009411162 -0.05128603 -0.01667197 0.017311674
0.07309482 -0.018202264 -0.019323781 -0.006437349 -0.028483117 -0.03644674 0.013675305 0.007093508
-0.021399766 0.10006069 0.042869177 -0.07508625 0.013378512 -0.10970452 0.025730083 -0.018735794
-0.032021146 0.031054474 -0.02206184 -0.09635067 0.07152702 -0.059175916 0.023914501 -0.043382864
-0.06564992 0.0061445422 -0.008613348 -0.007363994 -0.09177983 -0.04432639 0.07831474 -0.026169945
-0.087153845 0.014395542 -0.01271645 0.09660246 -0.05246551 -0.007479874 0.002255527 0.060413484
-0.0094043305 0.016747512 -0.07643729 -0.07391404 -0.084956236 0.018075824 0.014117618 -0.011843767
0.060515143 0.07811789 -0.011341818 0.061728816 0.008341732 0.0012621254 0.064416535 -0.059132215
-0.05154632 -0.07700866 0.07723567 -0.03965776 -0.005750284 -0.08667644 -0.008134961 0.017139522
-0.07351522 -0.08823548 0.0881816 -0.05440759 -0.041253917 0.1009761 0.05646238 -0.034475725
-0.086865224 -0.028122345 -0.0029089584 0.09362592 -0.084002376 0.023851037 -0.031673353 -0.07916971
0.053540777 -0.05388074 -0.07180968 0.0968883 -0.02633977 0.024901256 -0.061442487 0.043904502
-0.0525991 0.100184046 0.11050033 -0.07305796 0.081388324 0.04232197 0.080858134 0.07419381
-0.030103523 0.083026335 0.08033056 -0.039233528 -0.050853543 -0.06423784 0.117776364 -0.052879073
-0.03591847 -0.03862254 -0.052563004 -0.070036955 -0.0031843067 0.027258554 0.052245665 0.049789164

linear.1.weight f4 [128, 128]
00000000: fcb0 613d f21f adbd 1bcf bc3c c0f0 413d
00000010: 0ebc 1f3d c94e 7bbd a84d c9bd d8d8 1ebd
00000020: 6bce 053d 5f29 46bd 17ee 853d c8cd 3fbd
00000030: d891 26bd 1471 38bd a9ea abbd c870 e93d
00000040: 6466 89bc 4b2e b33d 40d6 453b 92f2 b53d
00000050: b006 f33c 062b ba3d c671 81bd fe0b d3bd
00000060: e2c7 ab3d 42a4 94bd fb8b b4bb 32b5 4e3d
00000070: db49 80bc 0292 baba 13d7 5d3c fa75 a13d
00000080: a472 813b 8885 6c3d 1064 25bc 7a40 a53c
00000090: 1cb9 8cbc df5f b43d c3f7 55bd 72f3 de3a
000000a0: df2c 583e d734 41bd 4a36 10bd 30b6 013d
000000b0: 242f dfbd fb2c d5bd e1ed 443d 7f23 3f3d
000000c0: 375d ae3b b429 8dbb 2027 df3c f75a 89bc
000000d0: ef04 e2bd 5ace df3c fafe 8e3c 6bb1 843d
000000e0: c9ff b3bd 3abd c4bd 21d3 afbd 02a9 513c
000000f0: 45f8 ab3d 6628 f93d 23fc 823c e7bb ad3d
00000100: 9d2c d13c 9520 ce3c 95b9 b93d eb0e d1bd
00000110: 5c58 cebd 65ab 983d 79ab 09bd 3e97 3fbc
00000120: f81e d1bd e25a c9bd 1968 28bd c7d0 023d
00000130: 0239 3dbd 546f 533d 14ca 83bd 1f0a 2b3b
00000140: c1d1 a0bd f9aa 913d 5105 b6bd 9a0a 573c
00000150: 8eb6 713d c363 71bd 1297 073e 3632 9abd
00000160: 466c 87bd 587d 59bd 67ef 2dbd 18a0 bfbd
00000170: 055a c1bd 62be 843d 3800 ebbd f468 56be
00000180: 86f8 9b3d 53a9 b9ba d544 e2bd cbed 4b3d
00000190: 12ff 71bd b706 333d fa57 f0bd afb6 ae3d
000001a0: bef6 653d bbd0 4d3d b1d5 ad3d 8436 4abd
000001b0: 1ba1 873d 208b 86bd 6775 3c3d 3744 93bd
000001c0: 3719 053d 6c20 4ebc d9dd 883d 0b45 aa3d
000001d0: 5e62 2e3d 570a 5dbc 103f b1bd ef26 b23d
000001e0: d62c 4bbd 5e54 9b3c d1f7 173d a93d e83d
000001f0: 1b01 9fbd 0bb7 e53d 6fcc 023d 6aa6 353d
00000200: f45a 12bd 2971 a23d a6fb b6bd 6827 a0bc
00000210: 468b 31be 0944 8f3d fcee 76bd 83b7 33bd
00000220: b8c6 eebd c053 473d a52c f23d 7f13 73bd
00000230: 9077 b23c 12a4 5e3d e30b f1bd 9535 cf3c
00000240: 40a8 d3bc 6d29 f9ba 3bc6 48be 5af7 e6bd
00000250: 41fc f63d a8f8 013e 397d cdbc c31e c3bd
00000260: 6796 363d a329 74bd d49f 35be 70e8 92bd
00000270: 11b1 2a3d fa98 59bd eba1 76bc 2f81 123e
00000280: db93 5abe 0198 b4bd 6004 f23c b62c 793c
00000290: 85fd 3a3e 9563 ad3d cdf2 223d bacf be3d
000002a0: 3359 e4bd 5be2 2abe 552d ee3d ee05 afbd
000002b0: 43d6 dd3d 49de e73d 492e 4ebd 8087 98bd
000002c0: 92f1 2e3d 97b4 06be a421 10be a85d da3d
000002d0: f46c 653d 3e20 e13d 284a 59bd 2bc6 16bc
000002e0: d5b7 9f3d b674 833d a840 03be 88c6 773c
000002f0: ae7b a43d 46e3 7f3d 0c8a a1bd 1724 2c3d
00000300: 5e85 1cbe 9ace 06bd 6cb8 653d 83a3 bc3d
00000310: 8989 09bd 9b76 093c c224 c63d d87a f33d
00000320: 4be8 623d c18f 19bd 1ed1 6f3d 4621 7dbd
00000330: f770 9bbd c048 913d 72b8 27bd 256d b83d
00000340: 6e44 e83c 294d 7cbd d535 16be de3e 85bd
00000350: 7489 95bd 7c68 4cbd 3fec 9dbc d437 edbc
00000360: e135 df3d 79ae cdbc 933e bd3d a1de e93c
00000370: aa4c 903d 13ef febc 584f 7bbd 3c7d 23bd
00000380: 14cc fcbc b325 b0bd 55a9 22be 8d00 bd3d
00000390: b0ed 83bd 9f59 b1bd a608 d53d e6fe 0e3d
000003a0: ce35 183c d8d1 273d e9d8 00bd 36aa 1cbc
000003b0: d5a8 213c 71fd 623d 0523 d73c 45ec ce3c
000003c0: c2d8 403d d0ab a73d f693 00bd 47bc 0bbc
000003d0: fb77 6dbd e932 90bd f2db a3bb 3c90 003d
000003e0: 2a5c e9bd 0b05 5abb 5dfb 30be 3fb2 d1bd
000003f0: 11f7 f3bc 6edb 1ebe ddc7 213d 02b8 82bd
0.055100426 -0.08453359 0.023047974 0.047348738 0.038997702 -0.061354432 -0.09829265 -0.038781017
0.03266756 -0.0483793 0.06539553 -0.046827108 -0.04066643 -0.045029715 -0.08394367 0.113984644
-0.016772456 0.08749064 0.0030187517 0.08884157 0.029666275 0.09090237 -0.06320529 -0.10305022
0.08387734 -0.07257892 -0.005509851 0.05046577 -0.015660217 -0.0014234188 0.013540047 0.0788383
0.003950434 0.057744533 -0.010094658 0.020172346 -0.01717811 0.088073485 -0.052238237 0.0017009808
0.21110867 -0.047169533 -0.035208024 0.03166789 -0.10897663 -0.1040897 0.04807842 0.04666471
0.0053211707 -0.00430795 0.027240336 -0.016767008 -0.11036097 0.027320076 0.017455567 0.06479152
-0.087890215 -0.096064046 -0.085851915 0.012796642 0.08396963 0.121659085 0.015989369 0.08483105
0.025533969 0.02516202 0.090686 -0.102079235 -0.10075447 0.07454566 -0.033610795 -0.011693774
-0.10210985 -0.09831788 -0.0411149 0.031937387 -0.046196945 0.051619843 -0.06435028 0.0026098562
-0.078525074 0.071126886 -0.08887733 0.013125086 0.05901199 -0.05893303 0.13241223 -0.07529108
-0.066124484 -0.053098053 -0.04246464 -0.09356707 -0.09440998 0.06481625 -0.11474651 -0.20938474
0.076157615 -0.0014164842 -0.11048285 0.049787324 -0.059081145 0.043707576 -0.1173553 0.08530938
0.056143515 0.05024789 0.08488024 -0.049368396 0.06622525 -0.06569505 0.0460104 -0.07190745
0.03249475 -0.012580972 0.06682939 0.0831395 0.04257428 -0.013491235 -0.08654606 0.08698832
-0.049603306 0.018961128 0.03710157 0.11339886 -0.07763883 0.11216553 0.031933244 0.044348158
-0.03573127 0.0793174 -0.08934717 -0.01955004 -0.17338285 0.069953986 -0.060286507 -0.043876182
-0.11658996 0.048663855 0.118249215 -0.059344765 0.021785527 0.05435569 -0.11769845 0.025294105
-0.025837064 -0.0019009538 -0.19606869 -0.11277647 0.12059832 0.12692511 -0.025084125 -0.09527352
0.04457703 -0.05961002 -0.17736751 -0.0717324 0.04167277 -0.053124405 -0.015053253 0.14307092
-0.21345465 -0.08818055 0.029543102 0.015208414 0.18260773 0.084662594 0.039782334 0.093169644
-0.11149826 -0.1668791 0.1162974 -0.08546053 0.10831883 0.113216944 -0.05033711 -0.074477196
0.04271085 -0.13154827 -0.14075333 0.10662395 0.05601211 0.10992478 -0.053049237 -0.00920252
0.07798735 0.06418745 -0.12817633 0.015123017 0.080314025 0.062472604 -0.078876585 0.042026605
-0.1528525 -0.032911874 0.05608408 0.09210875 -0.03357843 0.008390094 0.0967498 0.11888665
0.055397313 -0.03749061 0.05854904 -0.06179931 -0.07589906 0.07093954 -0.040947385 0.09005193
0.028352942 -0.061597023 -0.14668973 -0.065061316 -0.07301608 -0.04990433 -0.01927769 -0.028957285
0.108989485 -0.02510761 0.09240451 0.02854854 0.070458725 -0.031119859 -0.061354965 -0.039914355
-0.03085903 -0.086009406 -0.15884908 0.09228621 -0.0644182 -0.08659672 0.1040204 0.03491106
0.009290172 0.040971607 -0.03145686 -0.009562066 0.009866913 0.05541748 0.026261816 0.025259146
0.047081716 0.081870675 -0.031391107 -0.008528776 -0.05797575 -0.0704096 -0.0050005848 0.031387553
-0.11394532 -0.0033267166 -0.17283387 -0.10239076 -0.029780896 -0.15513393 0.039497245 -0.06382753

linear.1.bias f4 [128]
00000000: 4c0c 613d b2fe a73d 2094 c5bd 89a7 3a3d
00000010: d86b b4bc c343 de3d dc10 67bd 0388 d83b
00000020: 01ff 24bb 385a 0abd a817 a03d 39bc ce3d
00000030: 4631 1abc 4d11 52bd a893 88bc 36d1 8d3c
00000040: bdb2 953d ea1c 95bc e84c 9ebc 66f0 d2bb
00000050: 6d55 e9bc 2d49 15bd 630e 603c a870 e83b
00000060: 904e afbc 9eec cc3d 9797 2f3d d2c6 99bd
00000070: 8c31 5b3c c3ac e0bd e5c7 d23c cf7b 99bc
00000080: 9b28 03bd f465 fe3c 08bb b4bc 8053 c5bd
00000090: c27c 923d 7262 72bd 58e8 c33c 3bb2 31bd
000000a0: 7773 86bd 2858 c93b 001f 0dbc a94d f1bb
000000b0: 10f7 bbbd 978f 35bd 7a63 a03d 5a62 d6bc
000000c0: b77d b2bd 48db 6b3c a858 50bc 83d7 c53d
000000d0: 13e6 56bd bb19 f5bb 77d1 133b 2174 773d
000000e0: 9f14 1abc 1432 893c 278b 9cbd 3f60 97bd
000000f0: 89fd adbd c013 943c 954d 673c 5c0c 42bc
00000100: bade 773d 46fc 9f3d 08d3 39bc 5bd7 7c3d
00000110: c3ab 083c e76d a53a d1ec 833d 9f34 72bd
00000120: 3c22 53bd b7b6 9dbd bc2d 9e3d 2d70 22bd
00000130: e16c bcbb 6b83 b1bd 8048 05bc 2f68 8c3c
00000140: 268f 96bd ceb4 b4bd 8e98 b43d 7eda 5ebd
00000150: def9 28bd 8fcc ce3d 1945 673d 6b36 0dbd
00000160: 65e6 b1bd d560 e6bc 39a4 3ebb f2be bf3d
00000170: 7009 acbd 4063 c33c ebbb 01bd bb23 a2bd
00000180: 934d 5b3d 0db2 5cbd f410 93bd 5f6d c63d
00000190: 80c6 d7bc b8fd cb3c 1eab 7bbd 35d5 333d
000001a0: 2772 57bd 4b2d cd3d ff4d e23d 699f 95bd
000001b0: ecae a63d cd59 2d3d f398 a53d edf2 973d
000001c0: aa9b f6bc b609 aa3d 5984 a43d 56b3 20bd
000001d0: ce4b 50bd 218f 83bd bc34 f13d ba97 58bd
000001e0: 3f1f 13bd ab32 1ebd 4e4c 57bd 896f 8fbd
000001f0: cdaf 50bb 554d df3c 8dff 553d b9ef 4b3d
0.054943368 0.08202876 -0.09647393 0.04556993 -0.02202408 0.10852768 -0.056412563 0.0066080107
-0.0025176408 -0.033777446 0.07817012 0.100944944 -0.009411162 -0.05128603 -0.01667197 0.017311674
0.07309482 -0.018202264 -0.019323781 -0.006437349 -0.028483117 -0.03644674 0.013675305 0.007093508
-0.021399766 0.10006069 0.042869177 -0.07508625 0.013378512 -0.10970452 0.025730083 -0.018735794
-0.032021146 0.031054474 -0.02206184 -0.09635067 0.07152702 -0.059175916 0.023914501 -0.043382864
-0.06564992 0.0061445422 -0.008613348 -0.007363994 -0.09177983 -0.04432639 0.07831474 -0.026169945
-0.087153845 0.014395542 -0.01271645 0.09660246 -0.05246551 -0.007479874 0.002255527 0.060413484
-0.0094043305 0.016747512 -0.07643729 -0.07391404 -0.084956236 0.018075824 0.014117618 -0.011843767
0.060515143 0.07811789 -0.011341818 0.061728816 0.008341732 0.0012621254 0.064416535 -0.059132215
-0.05154632 -0.07700866 0.07723567 -0.03965776 -0.005750284 -0.08667644 -0.008134961 0.017139522
-0.07351522 -0.08823548 0.0881816 -0.05440759 -0.041253917 0.1009761 0.05646238 -0.034475725
-0.086865224 -0.028122345 -0.0029089584 0.09362592 -0.084002376 0.023851037 -0.031673353 -0.07916971
0.053540777 -0.05388074 -0.07180968 0.0968883 -0.02633977 0.024901256 -0.061442487 0.043904502
-0.0525991 0.100184046 0.11050033 -0.07305796 0.081388324 0.04232197 0.080858134 0.07419381
-0.030103523 0.083026335 0.08033056 -0.039233528 -0.050853543 -0.06423784 0.117776364 -0.052879073
-0.03591847 -0.03862254 -0.052563004 -0.070036955 -0.0031843067 0.027258554 0.052245665 0.049789164

linear.2.weight f4 [128, 128]
00000000: fcb0 613d f21f adbd 1bcf bc3c c0f0 413d
00000010: 0ebc 1f3d c94e 7bbd a84d c9bd d8d8 1ebd
00000020: 6bce 053d 5f29 46bd 17ee 853d c8cd 3fbd
00000030: d891 26bd 1471 38bd a9ea abbd c870 e93d
00000040: 6466 89bc 4b2e b33d 40d6 453b 92f2 b53d
00000050: b006 f33c 062b ba3d c671 81bd fe0b d3bd
00000060: e2c7 ab3d 42a4 94bd fb8b b4bb 32b5 4e3d
00000070: db49 80bc 0292 baba 13d7 5d3c fa75 a13d
00000080: a472 813b 8885 6c3d 1064 25bc 7a40 a53c
00000090: 1cb9 8cbc df5f b43d c3f7 55bd 72f3 de3a
000000a0: df2c 583e d734 41bd 4a36 10bd 30b6 013d
000000b0: 242f dfbd fb2c d5bd e1ed 443d 7f23 3f3d
000000c0: 375d ae3b b429 8dbb 2027 df3c f75a 89bc
000000d0: ef04 e2bd 5ace df3c fafe 8e3c 6bb1 843d
000000e0: c9ff b3bd 3abd c4bd 21d3 afbd 02a9 513c
000000f0: 45f8 ab3d 6628 f93d 23fc 823c e7bb ad3d
00000100: 9d2c d13c 9520 ce3c 95b9 b93d eb0e d1bd
00000110: 5c58 cebd 65ab 983d 79ab 09bd 3e97 3fbc
00000120: f81e d1bd e25a c9bd 1968 28bd c7d0 023d
00000130: 0239 3dbd 546f 533d 14ca 83bd 1f0a 2b3b
00000140: c1d1 a0bd f9aa 913d 5105 b6bd 9a0a 573c
00000150: 8eb6 713d c363 71bd 1297 073e 3632 9abd
00000160: 466c 87bd 587d 59bd 67ef 2dbd 18a0 bfbd
00000170: 055a c1bd 62be 843d 3800 ebbd f468 56be
00000180: 86f8 9b3d 53a9 b9ba d544 e2bd cbed 4b3d
00000190: 12ff 71bd b706 333d fa57 f0bd afb6 ae3d
000001a0: bef6 653d bbd0 4d3d b1d5 ad3d 8436 4abd
000001b0: 1ba1 873d 208b 86bd 6775 3c3d 3744 93bd
000001c0: 3719 053d 6c20 4ebc d9dd 883d 0b45 aa3d
000001d0: 5e62 2e3d 570a 5dbc 103f b1bd ef26 b23d
000001e0: d62c 4bbd 5e54 9b3c d1f7 173d a93d e83d
000001f0: 1b01 9fbd 0bb7 e53d 6fcc 023d 6aa6 353d
00000200: f45a 12bd 2971 a23d a6fb b6bd 6827 a0bc
00000210: 468b 31be 0944 8f3d fcee 76bd 83b7 33bd
00000220: b8c6 eebd c053 473d a52c f23d 7f13 73bd
00000230: 9077 b23c 12a4 5e3d e30b f1bd 9535 cf3c
00000240: 40a8 d3bc 6d29 f9ba 3bc6 48be 5af7 e6bd
00000250: 41fc f63d a8f8 013e 397d cdbc c31e c3bd
00000260: 6796 363d a329 74bd d49f 35be 70e8 92bd
00000270: 11b1 2a3d fa98 59bd eba1 76bc 2f81 123e
00000280: db93 5abe 0198 b4bd 6004 f23c b62c 793c
00000290: 85fd 3a3e 9563 ad3d cdf2 223d bacf be3d
000002a0: 3359 e4bd 5be2 2abe 552d ee3d ee05 afbd
000002b0: 43d6 dd3d 49de e73d 492e 4ebd 8087 98bd
000002c0: 92f1 2e3d 97b4 06be a421 10be a85d da3d
000002d0: f46c 653d 3e20 e13d 284a 59bd 2bc6 16bc
000002e0: d5b7 9f3d b674 833d a840 03be 88c6 773c
000002f0: ae7b a43d 46e3 7f3d 0c8a a1bd 1724 2c3d
00000300: 5e85 1cbe 9ace 06bd 6cb8 653d 83a3 bc3d
00000310: 8989 09bd 9b76 093c c224 c63d d87a f33d
00000320: 4be8 623d c18f 19bd 1ed1 6f3d 4621 7dbd
00000330: f770 9bbd c048 913d 72b8 27bd 256d b83d
00000340: 6e44 e83c 294d 7cbd d535 16be de3e 85bd
00000350: 7489 95bd 7c68 4cbd 3fec 9dbc d437 edbc
00000360: e135 df3d 79ae cdbc 933e bd3d a1de e93c
00000370: aa4c 903d 13ef febc 584f 7bbd 3c7d 23bd
00000380: 14cc fcbc b325 b0bd 55a9 22be 8d00 bd3d
00000390: b0ed 83bd 9f59 b1bd a608 d53d e6fe 0e3d
000003a0: ce35 183c d8d1 273d e9d8 00bd 36aa 1cbc
000003b0: d5a8 213c 71fd 623d 0523 d73c 45ec ce3c
000003c0: c2d8 403d d0ab a73d f693 00bd 47bc 0bbc
000003d0: fb77 6dbd e932 90bd f2db a3bb 3c90 003d
000003e0: 2a5c e9bd 0b05 5abb 5dfb 30be 3fb2 d1bd
000003f0: 11f7 f3bc 6edb 1ebe ddc7 213d 02b8 82bd
0.055100426 -0.08453359 0.023047974 0.047348738 0.038997702 -0.061354432 -0.09829265 -0.038781017
0.03266756 -0.0483793 0.06539553 -0.046827108 -0.04066643 -0.045029715 -0.08394367 0.113984644
-0.016772456 0.08749064 0.0030187517 0.08884157 0.029666275 0.09090237 -0.06320529 -0.10305022
0.08387734 -0.07257892 -0.005509851 0.05046577 -0.015660217 -0.0014234188 0.013540047 0.0788383
0.003950434 0.057744533 -0.010094658 0.020172346 -0.01717811 0.088073485 -0.052238237 0.0017009808
0.21110867 -0.047169533 -0.035208024 0.03166789 -0.10897663 -0.1040897 0.04807842 0.04666471
0.0053211707 -0.00430795 0.027240336 -0.016767008 -0.11036097 0.027320076 0.017455567 0.06479152
-0.087890215 -0.096064046 -0.085851915 0.012796642 0.08396963 0.121659085 0.015989369 0.08483105
0.025533969 0.02516202 0.090686 -0.102079235 -0.10075447 0.07454566 -0.033610795 -0.011693774
-0.10210985 -0.09831788 -0.0411149 0.031937387 -0.046196945 0.051619843 -0.06435028 0.0026098562
-0.078525074 0.071126886 -0.08887733 0.013125086 0.05901199 -0.05893303 0.13241223 -0.07529108
-0.066124484 -0.053098053 -0.04246464 -0.09356707 -0.09440998 0.06481625 -0.11474651 -0.20938474
0.076157615 -0.0014164842 -0.11048285 0.049787324 -0.059081145 0.043707576 -0.1173553 0.08530938
0.056143515 0.05024789 0.08488024 -0.049368396 0.06622525 -0.06569505 0.0460104 -0.07190745
0.03249475 -0.012580972 0.06682939 0.0831395 0.04257428 -0.013491235 -0.08654606 0.08698832
-0.049603306 0.018961128 0.03710157 0.11339886 -0.07763883 0.11216553 0.031933244 0.044348158
-0.03573127 0.0793174 -0.08934717 -0.01955004 -0.17338285 0.069953986 -0.060286507 -0.043876182
-0.11658996 0.048663855 0.118249215 -0.059344765 0.021785527 0.05435569 -0.11769845 0.025294105
-0.025837064 -0.0019009538 -0.19606869 -0.11277647 0.12059832 0.12692511 -0.025084125 -0.09527352
0.04457703 -0.05961002 -0.17736751 -0.0717324 0.04167277 -0.053124405 -0.015053253 0.14307092
-0.21345465 -0.08818055 0.029543102 0.015208414 0.18260773 0.084662594 0.039782334 0.093169644
-0.11149826 -0.1668791 0.1162974 -0.08546053 0.10831883 0.113216944 -0.05033711 -0.074477196
0.04271085 -0.13154827 -0.14075333 0.10662395 0.05601211 0.10992478 -0.053049237 -0.00920252
0.07798735 0.06418745 -0.12817633 0.015123017 0.080314025 0.062472604 -0.078876585 0.042026605
-0.1528525 -0.032911874 0.05608408 0.09210875 -0.03357843 0.008390094 0.0967498 0.11888665
0.055397313 -0.03749061 0.05854904 -0.06179931 -0.07589906 0.07093954 -0.040947385 0.09005193
0.028352942 -0.061597023 -0.14668973 -0.065061316 -0.07301608 -0.04990433 -0.01927769 -0.028957285
0.108989485 -0.02510761 0.09240451 0.02854854 0.070458725 -0.031119859 -0.061354965 -0.039914355
-0.03085903 -0.086009406 -0.15884908 0.09228621 -0.0644182 -0.08659672 0.1040204 0.03491106
0.009290172 0.040971607 -0.03145686 -0.009562066 0.009866913 0.05541748 0.026261816 0.025259146
0.047081716 0.081870675 -0.031391107 -0.008528776 -0.05797575 -0.0704096 -0.0050005848 0.031387553
-0.11394532 -0.0033267166 -0.17283387 -0.10239076 -0.029780896 -0.15513393 0.039497245 -0.06382753

linear.2.bias f4 [128]
00000000: 4c0c 613d b2fe a73d 2094 c5bd 89a7 3a3d
00000010: d86b b4bc c343 de3d dc10 67bd 0388 d83b
00000020: 01ff 24bb 385a 0abd a817 a03d 39bc ce3d
00000030: 4631 1abc 4d11 52bd a893 88bc 36d1 8d3c
00000040: bdb2 953d ea1c 95bc e84c 9ebc 66f0 d2bb
00000050: 6d55 e9bc 2d49 15bd 630e 603c a870 e83b
00000060: 904e afbc 9eec cc3d 9797 2f3d d2c6 99bd
00000070: 8c31 5b3c c3ac e0bd e5c7 d23c cf7b 99bc
00000080: 9b28 03bd f465 fe3c 08bb b4bc 8053 c5bd
00000090: c27c 923d 7262 72bd 58e8 c33c 3bb2 31bd
000000a0: 7773 86bd 2858 c93b 001f 0dbc a94d f1bb
000000b0: 10f7 bbbd 978f 35bd 7a63 a03d 5a62 d6bc
000000c0: b77d b2bd 48db 6b3c a858 50bc 83d7 c53d
000000d0: 13e6 56bd bb19 f5bb 77d1 133b 2174 773d
000000e0: 9f14 1abc 1432 893c 278b 9cbd 3f60 97bd
000000f0: 89fd adbd c013 943c 954d 673c 5c0c 42bc
00000100: bade 773d 46fc 9f3d 08d3 39bc 5bd7 7c3d
00000110: c3ab 083c e76d a53a d1ec 833d 9f34 72bd
00000120: 3c22 53bd b7b6 9dbd bc2d 9e3d 2d70 22bd
00000130: e16c bcbb 6b83 b1bd 8048 05bc 2f68 8c3c
00000140: 268f 96bd ceb4 b4bd 8e98 b43d 7eda 5ebd
00000150: def9 28bd 8fcc ce3d 1945 673d 6b36 0dbd
00000160: 65e6 b1bd d560 e6bc 39a4 3ebb f2be bf3d
00000170: 7009 acbd 4063 c33c ebbb 01bd bb23 a2bd
00000180: 934d 5b3d 0db2 5cbd f410 93bd 5f6d c63d
00000190: 80c6 d7bc b8fd cb3c 1eab 7bbd 35d5 333d
000001a0: 2772 57bd 4b2d cd3d ff4d e23d 699f 95bd
000001b0: ecae a63d cd59 2d3d f398 a53d edf2 973d
000001c0: aa9b f6bc b609 aa3d 5984 a43d 56b3 20bd
000001d0: ce4b 50bd 218f 83bd bc34 f13d ba97 58bd
000001e0: 3f1f 13bd ab32 1ebd 4e4c 57bd 896f 8fbd
000001f0: cdaf 50bb 554d df3c 8dff 553d b9ef 4b3d
0.054943368 0.08202876 -0.09647393 0.04556993 -0.02202408 0.10852768 -0.056412563 0.0066080107
-0.0025176408 -0.033777446 0.07817012 0.100944944 -0.009411162 -0.05128603 -0.01667197 0.017311674
0.07309482 -0.018202264 -0.019323781 -0.006437349 -0.028483117 -0.03644674 0.013675305 0.007093508
-0.021399766 0.10006069 0.042869177 -0.07508625 0.013378512 -0.10970452 0.025730083 -0.018735794
-0.032021146 0.031054474 -0.02206184 -0.09635067 0.07152702 -0.059175916 0.023914501 -0.043382864
-0.06564992 0.0061445422 -0.008613348 -0.007363994 -0.09177983 -0.04432639 0.07831474 -0.026169945
-0.087153845 0.014395542 -0.01271645 0.09660246 -0.05246551 -0.007479874 0.002255527 0.060413484
-0.0094043305 0.016747512 -0.07643729 -0.07391404 -0.084956236 0.018075824 0.014117618 -0.011843767
0.060515143 0.07811789 -0.011341818 0.061728816 0.008341732 0.0012621254 0.064416535 -0.059132215
-0.05154632 -0.07700866 0.07723567 -0.03965776 -0.005750284 -0.08667644 -0.008134961 0.017139522
-0.07351522 -0.08823548 0.0881816 -0.05440759 -0.041253917 0.1009761 0.05646238 -0.034475725
-0.086865224 -0.028122345 -0.0029089584 0.09362592 -0.084002376 0.023851037 -0.031673353 -0.07916971
0.053540777 -0.05388074 -0.07180968 0.0968883 -0.02633977 0.024901256 -0.061442487 0.043904502
-0.0525991 0.100184046 0.11050033 -0.07305796 0.081388324 0.04232197 0.080858134 0.07419381
-0.030103523 0.083026335 0.08033056 -0.039233528 -0.050853543 -0.06423784 0.117776364 -0.052879073
-0.03591847 -0.03862254 -0.052563004 -0.070036955 -0.0031843067 0.027258554 0.052245665 0.049789164

classifier.0.weight f4 [100, 128]
00000000: af8f 693d be9e 203d 1176 c93c 2dd2 943c
00000010: 6949 7abd 072a 97bd aa3e 44bd c346 2bbd
00000020: c985 78bd 04f6 9b3c 22e3 9ebb 9e54 37bd
00000030: e056 4d3b 152a 043d 8a93 99bd 90e3 313c
00000040: ae52 663d 3df9 913d e36c 033d 97ba c53b
00000050: 1c0e 81bd 503f adbd c9de d9bc 9f2a a6bd
00000060: 7cc3 83bc cf1a aabd a03d 32bb 24c9 e0bc
00000070: d353 ae3d 0a53 7d3d 1014 99bc 6288 89bd
00000080: 5da3 af3c 9a55 173d b0be 6bbd b822 613c
00000090: f3a9 0b3d 88ad f7bc dd5e 2dbd d0ed 93bd
000000a0: 3463 bbbc 23b0 4cbd 00f8 8d38 adcd a8bd
000000b0: 70b4 23bc 8fee 50bd 46a2 56bd 97c1 8e3c
000000c0: c8c5 0d3d 9621 1d3d a0bd d8bb e9ea 5a3d
000000d0: bb8e 523d 1713 b5bd 68f8 913d 542a ee3c
000000e0: 1cf3 53bd 5ea7 cd3b 8875 483d c92a 8fbd
000000f0: d815 18bc 46cb bcbb 1ca2 93bd 7c33 93bd
00000100: f1e4 75bd 8e29 1c3d f057 96bb 621c 8dbd
00000110: 4ff4 0cbd 68f2 7fbc 03b9 823d c0f5 4f3b
00000120: cb09 783d c418 8b3c 4587 0dbd 0ee2 b6bd
00000130: c6d7 6f3d 08f0 713c d5b7 6d3d 60e3 8abb
00000140: beff afbd 18e9 7d3d d815 8cbc 1e98 3a3d
00000150: 1535 023d c369 313d 83e5 5bbd b79a 7f3d
00000160: b5a6 f53b 9cdf 6ebd fc4b b13c 3e1f 843c
00000170: 8f4d 183d 7481 233c 88e1 9b3c 29bd 2bbd
00000180: dc68 a5bc cd51 983d e977 16bd a148 87bd
00000190: 2835 a9bd 1fc5 b1bd 7c8a 63bd 6049 efbb
000001a0: 93b8 8a3d 7514 38bd 9425 4d3c dbcb 55bd
000001b0: e48f 6abc a0d1 98bd ceae 31b9 a32d 9dbd
000001c0: 1d44 8ebd a226 4e3d d48a f63c aa55 32bd
000001d0: 18fc af3c e9bf 03bc 9d9a 1ebd a001 9abd
000001e0: 3b9b 85bd 7ad0 3a3d afaf f93c ce3d b1bd
000001f0: 9a34 f6bc 1724 dd3a 0c85 7b3d 0795 a83d
00000200: d316 493d 62fe 28bd 33a2 bfbd c7de 3d3d
00000210: 3f46 aebd f8ee aebd 7ba2 0bbd 5d01 253d
00000220: 4b7c 74bc c0b4 71bb 60ee 073d a342 07bd
00000230: 8f46 80bd c9e8 56bd e7d2 293d e52b 913c
00000240: 3e94 95bd 7520 b3bc 7cc9 fb3c eb81 a53c
00000250: 8031 0fbb 80d9 2abb 6e3d cebd f311 18bd
00000260: ed77 913d 0b01 cebc ca56 47bd 1de5 03bd
00000270: 26e2 0bbd afca bdbd d6eb 8fbd 9267 bfbd
00000280: da09 0bbd 0709 95bd a00a 8d3c ec54 6e3d
00000290: 0cb4 f43c c31b a8bc 7883 14bd f92e 9f3b
000002a0: 5086 3b3d f1e3 b7bd e03b a03d 675e 64bc
000002b0: fe64 483d 47c1 0ebc 64bc 2f3d 2445 333d
000002c0: 010c f23b 5d26 28bd f489 3b3d b334 15bd
000002d0: 7ab7 363c 81d7 ef3c 6431 9abc f30d 9cbd
000002e0: c920 a83b bc60 e23c 0b1d b2bd b429 d7bb
000002f0: dffa 3abd d71a 4cba ee5a 063d ea2b f13c
00000300: 4bad bfbd 94c3 98bd 782d 543c 70b4 233d
00000310: eea1 943d b214 023d a2de e7bc 8c56 95bc
00000320: b9dd dabc 9ba3 f5bc 7019 5c3d 0164 d0bc
00000330: 2bb8 0abd 6143 6cbd 4866 5f3d df8c 0cbc
00000340: 59ca 303c 7192 83bc 7d9a 863d ab01 ca3c
00000350: 9388 713d 5727 583d cb83 50bd 16c4 973d
00000360: 0f85 d4bd 6182 a0bd 54eb d1bd ae08 93bd
00000370: 5a74 65bd 2b00 003b 4f19 6e3c 7c3a b5bc
00000380: 6ad9 53bd bb6a 4a3c 2878 8b3d b543 93bd
00000390: 932d b2bd be11 1f3d e709 17bd 63f9 2abd
000003a0: 017d a2bd 8618 4bbd a5bf 29bd a002 babc
000003b0: 0ffb 4cbc 2090 553b 3415 9cbd a8b3 b1bc
000003c0: e156 753d b957 85bc b048 ab3c 5018 723c
000003d0: b88e 683c 13d2 803d 5e81 7abd a13b 8ebd
000003e0: beff 76bd 52f1 6cbd eeda b1bd f38a 86bd
000003f0: d6fd 433c 53af 8ebc 5751 5fbd 722f 193d
0.057021793 0.03921389 0.024592431 0.018166626 -0.061105166 -0.07381063 -0.047911324 -0.04181553
-0.060674462 0.019038208 -0.0048488537 -0.04475843 0.00313323 0.032266695 -0.07498844 0.010857478
0.056231193 0.071276166 0.032086264 0.006034206 -0.06301519 -0.084593415 -0.02659549 -0.08113598
-0.016084425 -0.083058946 -0.0027197376 -0.027439661 0.08512082 0.06184677 -0.018686324 -0.06715466
0.021440202 0.03694687 -0.0575549 0.013741188 0.034097623 -0.030234113 -0.042326797 -0.072230935
-0.022874452 -0.049972665 6.7695975e-05 -0.082423545 -0.00999175 -0.051008757 -0.05240085 0.017426295
0.034612447 0.03836211 -0.006614402 0.053446684 0.05140565 -0.08841532 0.07127458 0.029072918
-0.05174552 0.0062760552 0.04894021 -0.069905825 -0.009282552 -0.005761537 -0.07208654 -0.07187554
-0.06003279 0.038125567 -0.0045881197 -0.06890179 -0.03441268 -0.015621759 0.063829444 0.0031732172
0.060556214 0.016979583 -0.03455283 -0.08929835 0.058555387 0.014766701 0.058036644 -0.004238531
-0.08593701 0.061989874 -0.01710026 0.045555227 0.031788904 0.043313753 -0.053685676 0.062403407
0.0074966797 -0.05831872 0.021642677 0.016128179 0.03718334 0.0099795945 0.01902844 -0.041928444
-0.020191602 0.07437477 -0.03673545 -0.0660565 -0.08262092 -0.08680176 -0.05555199 -0.007302448
0.06773486 -0.044941384 0.012521166 -0.052196365 -0.014316533 -0.07461858 -0.00016945155 -0.0767472
-0.06946585 0.050329812 0.030095495 -0.043538727 0.021482512 -0.00804136 -0.03872167 -0.07519841
-0.065237485 0.045608975 0.03047928 -0.086543664 -0.03005438 0.0016871718 0.06140618 0.0823155
0.049094032 -0.041258223 -0.09357109 0.046355035 -0.08509492 -0.085416734 -0.0340905 0.040284503
-0.014922212 -0.0036881417 0.033186316 -0.033022534 -0.06263458 -0.052468095 0.041460898 0.017721126
-0.073036656 -0.021866063 0.030735724 0.020203551 -0.0021849573 -0.0026069582 -0.100703105 -0.037126493
0.07102952 -0.025146982 -0.048666753 -0.03220092 -0.03415122 -0.092671745 -0.07027404 -0.09345926
-0.033944942 -0.072771125 0.01721698 0.058186457 0.02987101 -0.02052105 -0.03625819 0.0048578945
0.045782387 -0.08979023 0.0782392 -0.013938523 0.04892444 -0.008713073 0.042904273 0.04376711
0.007386685 -0.04105221 0.04578586 -0.03642721 0.011152143 0.029277565 -0.01882238 -0.07619848
0.0051308614 0.027634017 -0.08696946 -0.0065662507 -0.045649406 -0.0007785982 0.03280156 0.029439885
-0.09359225 -0.074591786 0.012950294 0.039967 0.07257448 0.031758018 -0.028304402 -0.018229745
-0.026717054 -0.02998524 0.053735197 -0.02543831 -0.033867043 -0.057681445 0.054540902 -0.008578508
0.010790431 -0.01606104 0.06572435 0.024658998 0.058968138 0.052771892 -0.050906938 0.07410447
-0.103769414 -0.07837368 -0.102499634 -0.0717939 -0.056019165 0.001953135 0.014532401 -0.022122614
-0.051721014 0.012354548 0.06810027 -0.071906485 -0.08700099 0.03883528 -0.036874678 -0.04174174
-0.07933999 -0.049583934 -0.041442532 -0.02270633 -0.012511029 0.0032587126 -0.07621232 -0.021692112
0.059897307 -0.016277181 0.020908684 0.014776304 0.014194183 0.062900685 -0.06115853 -0.06944967
-0.06030249 -0.05784733 -0.08684336 -0.06569471 0.011962375 -0.017417585 -0.05452093 0.037398763
